src/DQN/pytorch_tutorial/cifar_net.pth (torch_old, 249562 bytes, 10 tensors)

conv1.weight f4 [6, 3, 5, 5]
0.2778355 0.36493644 0.33030382 0.3089786 0.1653743 0.07272867 0.36539027 0.405121
0.31834364 0.2563684 -0.11877288 0.11172505 0.19258273 0.27234137 0.22352828 -0.17810363
-0.16466188 -0.06449044 -0.022775183 0.066015355 -0.28774717 -0.1758715 -0.28962716 -0.25329563
-0.25829682 -0.23055692 -0.13455299 -0.19309723 -0.11941011 -0.2158601 -0.26866138 -0.12448339
-0.13401458 -0.037038043 -0.11205394 -0.39828384 -0.3286444 -0.32036963 -0.1745872 -0.07023085
-0.083924726 -0.22807537 -0.24241705 -0.0952891 0.09812981 0.12831354 -0.059108175 -0.28190953
-0.22858068 0.046840128 -0.07112649 -0.11139968 -0.0622919 -0.12128726 0.0020943626 -0.12747724
-0.15877531 -0.0459638 0.057664007 0.0039733658 -0.17492312 -0.19953042 -0.11609713 0.10648918
0.22473696 0.25487456 0.13944763 0.005704437 0.17117055 0.26829702 0.28287157 0.18854234
0.16010083 -0.04785158 0.20807691 0.067767814 0.10832619 0.0659179 0.014011696 0.10758882
0.017807653 0.29656574 0.06790534 -0.1472326 0.034146387 0.13661267 0.21777374 0.10346792
-0.23261026 -0.029692333 0.047933914 0.25823852 0.13698605 -0.069384 -0.106588274 0.05352032
0.029977083 -0.054114964 -0.036900822 -0.10404236 -0.07047518 0.13474879 -0.13350831 -0.3232539
-0.21078601 0.06379744 0.112948574 0.013908146 -0.37053624 -0.3543084 0.18424292 0.22841963
0.0811201 -0.35430136 -0.4026967 0.10805857 0.09085782 -0.048574664 -0.32788536 -0.23472016
-0.014663993 -0.060661823 0.025252333 -0.19085118 -0.052714948 0.25799137 0.17165501 -0.058468323
-0.3431377 -0.2420417 0.3523059 0.30117318 0.09924069 -0.4200298 -0.30260316 0.3549554
0.3583246 0.055834565 -0.21886107 -0.4376848 0.21667965 0.23165764 0.17218046 -0.08562119
-0.10774962 0.20992658 0.28564438 0.17421526 -0.075190604 -0.018715441 -0.029964883 -0.18274638
-0.11525517 -0.09389292 0.070179865 -0.082733154 -0.25980642 -0.09205441 -0.26151145 -0.258713
-0.16911115 -0.13436924 -0.22599521 -0.124006025 -0.11931371 -0.19230086 -0.30293196 -0.124876656
-0.27587196 -0.19914494 -0.1629506 -0.08683852 -0.17928721 -0.092641495 -0.12692912 0.04159251
-0.02573371 0.064265355 -0.062937856 0.0149250245 -0.07319358 0.03587223 0.031891048 0.12559521
-0.050089728 0.08374427 0.031873856 0.0602908 0.03700786 0.100186266 -0.043472182 -0.044146735
-0.07092779 -0.09935956 -0.15634634 0.03427363 -0.0932648 -0.061083697 -0.13105299 -0.10829689
0.030473404 0.20099808 0.09955268 0.13184112 0.0017958883 0.1437784 0.23110768 0.12059503
0.1519329 0.07542017 0.22736563 0.34458265 0.33563516 0.3530113 0.23278193 0.14407119
0.1543133 0.23398432 0.18624157 0.1381382 0.18156585 0.06721017 0.035315346 0.029496351
0.05759367 0.08967789 -0.019235492 -0.04614887 0.011319084 -0.045257512 0.16763417 0.1352121
0.099822 0.13910109 0.023753015 0.11114669 0.51211905 0.7036057 0.37883773 0.15907606
-0.057767306 -0.019796362 -0.06415085 -0.11772626 -0.1896572 -0.26289102 -0.57395524 -0.5688717
-0.37851465 -0.13389997 0.085511416 -0.19872431 -0.23135985 -0.11454624 -0.010553018 0.110602975
00000000: 7440 8e3e f3d8 ba3e 951d a93e 7132 9e3e
00000010: e157 293e c5f2 943d 6f14 bb3e 056c cf3e
00000020: f0fd a23e b842 833e 323f f3bd 1ad0 e43d
00000030: 6834 453e 5470 8b3e 99e4 643e cc60 36be
00000040: 209d 28be 9013 84bd 0593 babc 0f33 873d
00000050: 9953 93be a917 34be 034a 94be f7af 81be
00000060: 7b3f 84be 1d17 6cbe 42c8 09be 48bb 45be
00000070: 4a8d f4bd 6e0a 5dbe fc8d 89be 26f1 febd
00000080: 1e3b 09be 34b5 17bd 897c e5bd dceb cbbe
00000090: 1444 a8be 7d07 a4be fdc6 32be 31d5 8fbd
000000a0: bae0 abbd 978c 69be 2d3c 78be ef26 c3bd
000000b0: 48f8 c83d a064 033e 6a1b 72bd 7256 90be
000000c0: 0e11 6abe 6fdb 3f3d c4aa 91bd 8425 e4bd
000000d0: cb25 7fbd 7465 f8bd 9341 093b 6589 02be
000000e0: ff95 22be 8a44 3cbd 1831 6c3d 0233 823b
000000f0: 0c1f 33be b451 4cbe 55c4 edbd 0017 da3d
00000100: 7221 663e eb7e 823e 5ccb 0e3e 49ec ba3b
00000110: 5547 2f3e 3a5e 893e 8bd4 903e 3e11 413e
00000120: 79f1 233e 0500 44bd 1d12 553e dac9 8a3d
00000130: 1fda dd3d f7ff 863d 5091 653c 8757 dc3d
00000140: 5be1 913c 77d7 973e f411 8b3d 25c4 16be
00000150: 15dd 0b3d 31e4 0b3e 1400 5f3e fde6 d33d
00000160: 6231 6ebe 563d f3bc 5a56 443d d737 843e
00000170: 1246 0c3e 3319 8ebd f44a dabd 2038 5b3d
00000180: 8092 f53c a7a7 5dbd 5125 17bd 2914 d5bd
00000190: 4b55 90bd 96fb 093e 67b6 08be 8981 a5be
000001a0: 4ad8 57be 3ba8 823d 9551 e73d fede 633c
000001b0: edb6 bdbe e967 b5be 2daa 3c3e d6e6 693e
000001c0: 4c22 a63d fd66 b5be 432e cebe d04d dd3d
000001d0: aa13 ba3d 3af6 46bd 97e0 a7be 7b5a 70be
000001e0: 3f41 70bc 8878 78bd fbdd ce3c 7e6e 43be
000001f0: a1eb 57bd 7217 843e 55c6 2f3e 7b7c 6fbd
00000200: bfaf afbe c8d9 77be 7061 b43e 5f33 9a3e
00000210: b43e cb3d 250e d7be cdee 9abe b7bc b53e
00000220: 5276 b73e c9b2 643d 1e1d 60be 3918 e0be
00000230: 45e1 5d3e a937 6d3e 1350 303e 2a5a afbd
00000240: d5ab dcbd fef6 563e fb3f 923e 7c65 323e
00000250: 88fd 99bd 2051 99bc ea78 f5bc de21 3bbe
00000260: e70a ecbd ee4a c0bd 76ba 8f3d 0070 a9bd
00000270: 5905 85be 0687 bcbd d4e4 85be 0876 84be
00000280: 792b 2dbe 1798 09be 4a6b 67be dff6 fdbd
00000290: bf5a f4bd 84ea 44be e619 9bbe 55bf ffbd
000002a0: 173f 8dbe a7ec 4bbe 86dc 26be 65d8 b1bd
000002b0: 1197 37be d3ba bdbd b5f9 01be e85c 2a3d
000002c0: 80cf d2bc 8e9d 833d 90e5 80bd 1788 743c
000002d0: 84e6 95bd c2ee 123d 30a0 023d 089c 003e
000002e0: e32a 4dbd 1e82 ab3d 298e 023d 7cf3 763d
000002f0: 8e95 173d 752e cd3d e30f 32bd 35d3 34bd
00000300: 9742 91bd 067d cbbd 4119 20be 8162 0c3d
00000310: 9e01 bfbd e632 7abd c132 06be c3ca ddbd
00000320: 5ca3 f93c 71d2 4d3e 47e2 cb3d 5c01 073e
00000330: 0364 eb3a a53a 133e 7ea7 6c3e 87fa f63d
00000340: 4c94 1b3e e475 9a3d 89d2 683e 236d b03e
00000350: 5fd8 ab3e e6bd b43e 635e 6e3e 6687 133e
00000360: 4e04 1e3e 9699 6f3e 1cb6 3e3e 1a74 0d3e
00000370: 66ec 393e 7ca5 893d d3a6 103d 55a2 f13c
00000380: 57e7 6b3d 0ba9 b73d c093 9dbc 9906 3dbd
00000390: ae73 393c f15f 39bd 4ba8 2b3e 0a75 0a3e
000003a0: 7a6f cc3d 8470 0e3e af95 c23c e0a0 e33d
000003b0: 3c1a 033f 811f 343f 05f7 c13e d6e4 223e
000003c0: 699d 6cbd fb2b a2bc 8561 83bd 771a f1bd
000003d0: 7f35 42be a799 86be bbee 12bf 93a1 11bf
000003e0: accc c1be 131d 09be 9c20 af3d 637e 4bbe
000003f0: 99e9 6cbe 3897 eabd 91e6 2cbc d083 e23d

conv1.bias f4 [6]
-0.36008763 -0.2977605 0.53288513 -0.53601795 -0.009140034 0.110877156
00000000: 685d b8be 1074 98be 296b 083f 7938 09bf
00000010: 15c0 15bc 9013 e33d

conv2.weight f4 [16, 6, 5, 5]
0.007252206 0.026444089 0.03726307 -0.010453746 -0.07485915 -0.0077425055 -0.14316444 -0.015988147
-0.04149296 -0.03141129 0.05185485 0.10378497 0.115060635 0.08520512 0.07442547 0.12750463
0.054494843 0.1296889 0.15476951 0.14083816 0.04953733 0.08067153 0.13158114 0.13567945
0.10926845 0.12931961 0.109194495 -0.017908124 -0.053030502 -0.21686514 -0.13378285 -0.08812739
0.07210376 -0.019520633 0.004683329 -0.025917137 -0.044889577 0.039775223 0.08839257 0.06296319
0.03802622 -0.0070843976 0.025251796 -0.028430104 0.026396893 0.00062374293 -0.0063178143 0.019911908
-0.018416371 -0.06509881 0.15491998 0.13545269 0.15072516 0.09872099 0.14722632 -0.049675003
-0.022884848 -0.061508764 0.08362985 0.06958886 -0.1045801 -0.09323512 -0.06652562 -0.021829842
-0.1124098 -0.09405658 -0.061494425 -0.13957566 -0.15515937 -0.017914338 0.104247935 -0.039413325
0.03082701 -0.035711356 0.035761308 0.15772372 0.16163173 0.06143538 0.063865356 0.07954711
-0.063489735 -0.012779424 -0.071269564 0.09248251 0.078630045 0.036513694 -0.045720316 0.09262277
-0.0094858045 -0.040070396 0.029196009 -0.05164018 -0.024081273 0.02048738 0.026516756 -0.05317295
-0.0013113379 -0.055846933 -0.072016954 -0.029153414 -0.0037953549 -0.08261917 -0.10502848 -0.06056375
-0.046691976 -0.1615125 -0.11257517 -0.018532477 -0.07309194 -0.07700401 -0.16776201 -0.18531772
-0.17195524 0.026928749 -0.020956215 0.05041021 -0.061846416 -0.042534176 0.028175471 0.070204966
0.09635338 -0.011433877 -0.032928552 -0.03330261 -0.061976716 0.09289359 0.20142455 0.21083054
0.07859269 0.07471049 0.13725428 0.1523809 0.26565814 0.2354035 0.19728394 -0.02202629
-0.09578955 -0.09835181 0.12623957 0.11789426 -0.16671197 -0.11899746 -0.24201457 -0.17434244
-0.08690775 -0.064443916 -0.06585959 -0.118588164 -0.2578015 -0.24039973 -0.057144593 -0.060333084
0.059766773 0.022068297 -0.06913401 -0.05005138 0.002992127 -0.081769586 0.004879171 -0.029919626
0.0369601 -0.041818824 -0.08062149 0.07198175 0.068261765 0.027185844 -0.07255569 -0.01501272
-0.0040519307 0.024528624 -0.055228263 0.0097667705 0.0012851809 0.05650133 0.008144841 -0.069170184
-0.074394986 0.06532912 -0.05539848 -0.060818113 -0.029274961 0.07159516 -0.008529295 0.017731722
-0.0037495957 0.014878845 0.028875561 -0.020306708 -0.020679392 -0.04913363 0.075341 -0.03471752
0.052580796 0.067512356 -0.029240316 -0.06696898 0.035583645 0.0025252388 -0.032782916 0.074006215
-0.0073118666 0.06268032 -0.036966085 -0.07044672 0.047539916 -0.023238556 -0.035760887 -0.07993497
0.061010644 -0.08134629 0.04299407 -0.058849927 0.028181262 -0.03935165 -0.028215073 0.07766594
-0.011009808 -0.025272809 -0.010236434 0.07040393 0.069717295 -0.06705356 -0.0816148 0.027690215
0.010470348 -0.08310883 0.06741179 0.026210941 -0.024764994 0.020411113 0.037873875 -0.026414081
-0.010942184 0.02260034 -0.06380269 0.061661858 -0.05495955 0.06667878 -0.0724886 0.04720664
-0.034639325 -0.03556613 0.015141799 -0.00435467 0.016448561 -0.07212998 -0.027220828 0.078098185
0.04378354 -0.027381254 -0.027103238 -0.050454106 -0.024457641 -0.057641573 0.04050109 -0.03955952
00000000: eaa3 ed3b 46a1 d83c 29a1 183d 3046 2bbc
00000010: c14f 99bd d8b4 fdbb b399 12be 93f9 82bc
00000020: 86f4 29bd 20a9 00bd c065 543d 378d d43d
00000030: e9a4 eb3d 0680 ae3d 616c 983d 9390 023e
00000040: fc35 5f3d 2bcd 043e e67b 1e3e e137 103e
00000050: a8e7 4a3d 1d37 a53d 35bd 063e 8eef 0a3e
00000060: 23c8 df3d 5c6c 043e 5da1 df3d 0fb4 92bc
00000070: 8336 59bd e511 5ebe 5ffe 08be 227c b4bd
00000080: 23ab 933d bce9 9fbc 9c76 993b 2d50 d4bc
00000090: 22de 37bd 58eb 223d 2a07 b53d d8f2 803d
000000a0: 62c1 1b3d 3c24 e8bb dbdc ce3c 40e6 e8bc
000000b0: 4c3e d83c ae82 233a ab05 cfbb 4c1e a33c
000000c0: eedd 96bc 8652 85bd 58a3 1e3e 1cb4 0a3e
000000d0: b257 1a3e 3b2e ca3d 7fc2 163e 0478 4bbd
000000e0: 0179 bbbc 9df0 7bbd 2046 ab3d 9b84 8e3d
000000f0: 172e d6bd 0ef2 bebd 963e 88bd 7fd4 b2bc
00000100: 1c37 e6bd bca0 c0bd 94e1 7bbd ecec 0ebe
00000110: 19e2 1ebe 17c1 92bc f17f d53d de6f 21bd
00000120: ed88 fc3c 1246 12bd 737a 123d 5482 213e
00000130: ca82 253e aaa3 7b3d d7cb 823d 98e9 a23d
00000140: e806 82bd ca60 51bc c7f5 91bd 7867 bd3d
00000150: ca08 a13d 628f 153d 3a45 3bbd 02b1 bd3d
00000160: 596a 1bbc db20 24bd 782c ef3c a784 53bd
00000170: 1746 c5bc 26d5 a73c ab39 d93c e1cb 59bd
00000180: 33e1 abba c1bf 64bd a07d 93bd 24d3 eebc
00000190: 7dbb 78bb 3d34 a9bd 2c19 d7bd b211 78bd
000001a0: 1640 3fbd 8863 25be d08d e6bd 6cd1 97bc
000001b0: 3ab1 95bd 47b4 9dbd cec9 2bbe eec3 3dbe
000001c0: 0915 30be ae99 dc3c 5eac abbc f07a 4e3d
000001d0: ab52 7dbd 5138 2ebd 3fd0 e63c 9fc7 8f3d
000001e0: ec54 c53d 2855 3bbc 17e0 06bd 5168 08bd
000001f0: 4cdb 7dbd ff3e be3d 3d42 4e3e f6e3 573e
00000200: 34f5 a03d d001 993d 638c 0c3e bd09 1c3e
00000210: 5804 883e 9d0d 713e cd04 4a3e 7a70 b4bc
00000220: 502d c4bd ac6c c9bd f244 013e 8c72 f13d
00000230: 8bb6 2abe f1b4 f3bd abd2 77be d386 32be
00000240: b1fc b1bd 2cfb 83bd 65e1 86bd 5ade f2bd
00000250: 8ffe 83be 592b 76be 7310 6abd d31f 77bd
00000260: 01ce 743d 93c8 b43c 2296 8dbd ad02 4dbd
00000270: 9017 443b d076 a7bd 74e1 9f3b 011a f5bc
00000280: 7963 173d 374a 2bbd e11c a5bd 2b6b 933d
00000290: d3cc 8b3d d9b4 de3c 1498 94bd e9f7 75bc
000002a0: 0fc6 84bb 41f0 c83c 0837 62bd ce04 203c
000002b0: 8473 a83a f06d 673d f071 053c 19a9 8dbd
000002c0: 665c 98bd 46cb 853d 84e9 62bd 6a1c 79bd
000002d0: 0bd2 efbc 7ca0 923d 75be 0bbc 1e42 913c
000002e0: c7bb 75bb 66c6 733c 718c ec3c 415a a6bc
000002f0: d467 a9bc 5840 49bd 624c 9a3d f533 0ebd
00000300: f65e 573d eb43 8a3d 6389 efbc 0827 89bd
00000310: 28c0 113d 7a7e 253b 6147 06bd 9290 973d
00000320: 6298 efbb 8a5e 803d c069 17bd 5f46 90bd
00000330: 37b9 423d c95e bebc 027a 12bd f2b4 a3bd
00000340: 4ce6 793d e298 a6bd 8d1a 303d 9f0c 71bd
00000350: 64dc e63c 322f 21bd 4c23 e7bc 520f 9f3d
00000360: 7b62 34bc ec08 cfbc b7b6 27bc f02f 903d
00000370: f1c7 8e3d 6053 89bd a925 a7bd 97d6 e23c
00000380: d38b 2b3c f634 aabd 310f 8a3d 54b8 d63c
00000390: f5df cabc 3535 a73c a321 1b3d 5862 d8bc
000003a0: d946 33bc 5924 b93c fcaa 82bd 2591 7c3d
000003b0: 441d 61bd e28e 883d e774 94bd c05b 413d
000003c0: f7e1 0dbd caad 11bd 4f15 783c 9fb1 8ebb
000003d0: 22bf 863c e2b8 93bd 37fe debc f1f1 9f3d
000003e0: 5f56 333d a74e e0bc 9c07 debc f7a8 4ebd
000003f0: 645b c8bc 9219 6cbd 79e4 253d 2a09 22bd

conv2.bias f4 [16]
-0.15449059 -0.073325835 -0.6111905 -0.22406907 -0.20205946 0.47223082 -0.060281947 -0.20325632
-0.546929 0.78041655 0.8464206 0.5361023 -0.34506348 0.78767616 -0.22665894 -0.18133083
00000000: c832 1ebe db2b 96bd fb76 1cbf 5d72 65be
00000010: ade8 4ebe 3dc8 f13e 34ea 76bd 6d22 50be
00000020: 8a03 0cbf 61c9 473f 05af 583f 003e 093f
00000030: 29ac b0be 25a5 493f 4819 68be caae 39be

fc1.weight f4 [120, 400]
-0.008663148 -0.0035176734 0.023663454 0.045733392 0.0074376273 -0.008759421 0.02914527 0.048917495
0.0032420512 -0.08614785 -0.07131591 -0.0065511307 0.023040557 0.04524865 -0.047278047 -0.0340107
-0.029828504 -0.08713014 -0.083974026 -0.05203009 -0.002543735 -0.0021722866 -0.0026278072 0.010660955
-0.028862739 -0.0094911875 -0.020144021 -0.036744233 -0.025158063 -0.034821782 -0.023188995 -0.0019977768
-0.024849316 -0.011231925 -0.0053320504 -0.01485969 -0.045949288 -0.0117931515 -0.041535936 0.03293703
0.019582944 -0.020556103 -0.03545486 -0.0076908716 0.0153082665 -0.0040958496 0.010306563 -0.008290982
0.034995228 -0.008198875 0.0072986446 -0.032147612 -0.028639678 0.024424858 -0.03677862 0.044875015
0.09116421 0.038515743 0.043893125 -0.023107082 -0.08156432 0.050854422 0.054343313 -0.027896535
-0.07559243 -0.15124764 0.011624054 -0.0016573587 -0.01800381 0.024954429 -0.17197637 -0.009983424
0.04443698 -0.08248768 -0.034795403 -0.013971843 -0.042509455 0.014481374 0.04864474 0.06582144
0.015719334 -0.025843808 -0.015522382 -0.050360277 -0.03900653 -0.028567102 0.0048301555 0.033022396
-0.023992412 -0.059663977 -0.0004110592 0.053452842 0.050546445 0.040162794 -0.07611434 -0.12899938
-0.026920328 0.047671877 0.03805366 -0.05033821 -0.0397225 0.0005949879 -0.0294021 -0.049231023
-0.029924113 -0.03631307 0.0039486354 -0.027078902 0.021651931 -0.013211837 -0.043511152 -0.05841854
-0.02983317 -0.020606209 -0.03795133 -0.057473052 0.00010988483 0.005566675 -0.024484051 -0.050050307
-0.035359014 -0.04628365 -0.0036453593 0.043909326 0.021668222 0.010286447 0.05579489 0.021383574
0.027526032 -0.029095393 0.01270979 -0.018745666 0.06731338 -0.035457734 -0.03810353 -0.00016274404
-0.034507196 0.017413687 0.063439645 -0.09807168 0.031047368 0.0056554293 0.060881577 -0.033498406
-0.12718192 -0.0054795197 -0.0016752925 0.063889936 0.03784131 -0.030764507 0.053572755 0.05432666
-0.032696813 -0.054378033 -0.048470538 0.011195918 0.03320998 0.03836788 -0.006195452 0.0026440385
-0.040386945 -0.0007495735 0.02133546 0.040392317 0.01840303 -0.020059764 0.011703828 0.023609968
0.009168493 0.04544891 -0.021813832 0.013043753 -0.01496208 0.033437178 -0.004333448 0.07209732
0.095277786 0.049619414 -0.043200172 -0.006131693 0.037506267 0.014077035 0.011600028 -0.002982439
-0.08262538 0.0070210136 -0.011122679 0.0006805819 -0.058281668 -0.03440906 -0.0077599823 -0.065216504
-0.034956113 -0.06826522 -0.060253218 0.037399534 -0.0038443345 -0.022231137 -0.029653473 0.03946903
-0.06815342 0.009210754 -0.0402376 -0.03912215 -0.060431316 -0.066654615 0.0023426944 0.07023245
0.01581448 0.037656754 -0.0132821575 0.05433837 -0.008131228 0.058196098 -7.048822e-05 -0.04934836
0.012560361 0.005834629 0.021822562 -0.06636397 -0.075068995 -0.039598245 -0.07932648 -0.1083723
-0.1439256 0.04985336 0.005886832 0.041218743 0.013764411 0.034300625 -0.033260163 -0.052830208
-0.026736194 -0.0059218667 0.08904158 -0.03660365 -0.007505559 0.03910423 0.06593536 0.0792966
-0.02833615 0.0038295293 -0.03581881 0.024879312 0.046621926 0.059313133 -0.00037001885 -0.001174144
0.033956554 0.053728838 0.08965984 0.09548852 0.065097734 0.00483995 0.07259723 0.058192678
00000000: e0ef 0dbc c488 66bb dcd9 c13c f052 3b3d
00000010: 57b7 f33b ad83 0fbc 10c2 ee3c b65d 483d
00000020: 9878 543b 496e b0bd 130e 92bd deaa d6bb
00000030: 8dbf bc3c a656 393d a0a6 41bd ce4e 0bbd
00000040: e85a f4bc 4971 b2bd 93fa abbd 811d 55bd
00000050: cbb4 26bb ec5c 0ebb 4a37 2cbb 49ab 2e3c
00000060: 8d71 ecbc ed80 1bbc 1305 a5bc 1f81 16bd
00000070: 4818 cebc 49a1 0ebd d9f6 bdbc 22ed 02bb
00000080: cb90 cbbc 1c06 38bc 7bb8 aebb 0f76 73bc
00000090: 5235 3cbd 1038 41bc 9621 2abd fbe8 063d
000000a0: 696c a03c 4665 a8bc 1e39 11bd b503 fcbb
000000b0: 86cf 7a3c 7a36 86bb dcdc 283c e6d6 07bc
000000c0: 2857 0f3d 9354 06bc 7829 ef3b 37ad 03bd
000000d0: c29d eabc a416 c83c 2ea5 16bd ddce 373d
000000e0: 4db4 ba3d afc2 1d3d 47c9 333d 104b bdbc
000000f0: 320b a7bd ba4c 503d 1897 5e3d 4687 e4bc
00000100: 34d0 9abd a9e0 1abe d172 3e3c bb3b d9ba
00000110: ba7c 93bc 3b6d cc3c 931a 30be 8491 23bc
00000120: 8d03 363d 4def a8bd a085 0ebd 28ea 64bc
00000130: 651e 2ebd 4943 6d3c b53f 473d 64cd 863d
00000140: d5c5 803c 65b6 d3bc 9751 7ebc 9446 4ebd
00000150: 50c5 1fbd 8e05 eabc 4846 9e3b 7e42 073d
00000160: bc8b c4bc 3762 74bd 6f83 d7b9 5ef1 5a3d
00000170: ca09 4f3d be81 243d d6e1 9bbd 6a18 04be
00000180: 0588 dcbc 9643 433d 28de 1b3d 702f 4ebd
00000190: 0fb4 22bd f6f8 1b3a acdc f0bc 78a6 49bd
000001a0: 6a23 f5bc 04bd 14bd 8e63 813b 93d4 ddbc
000001b0: 645f b13c 7676 58bc c038 32bd 4748 6fbd
000001c0: b164 f4bc 5ace a8bc db72 1bbd dd68 6bbd
000001d0: f871 e638 a868 b63b c792 c8bc 8d01 4dbd
000001e0: 9dd4 10bd ed93 3dbd fbe6 6ebb 44da 333d
000001f0: 8e81 b13c 7c88 283c 2f89 643d 9b2c af3c
00000200: 467e e13c 7659 eebc b93c 503c 8390 99bc
00000210: 99db 893d 213c 11bd 7212 1cbd 45a6 2ab9
00000220: 6b57 0dbd 26a7 8e3c a5ec 813d ced9 c8bd
00000230: 0d57 fe3c 2e51 b93b f65e 793d a035 09bd
00000240: fa3b 02be 8b8d b3bb 7d95 dbba bad8 823d
00000250: 7dff 1a3d d905 fcbc 1b6f 5b3d a285 5e3d
00000260: 18ed 05bd 80bb 5ebd 0b89 46bd 156f 373c
00000270: 3007 083d a327 1d3d 3803 cbbb 9b47 2d3b
00000280: c86c 25bd 077f 44ba b4c7 ae3c 6a72 253d
00000290: f3c1 963c 6054 a4bc 6ac1 3f3c b169 c13c
000002a0: 7237 163c a328 3a3d ecb2 b2bc 77b5 553c
000002b0: 8323 75bc 6cf5 083d 99ff 8dbb c2a7 933d
000002c0: 0021 c33d ba3d 4b3d aaf2 30bd 5eec c8bb
000002d0: 2ca0 193d 5da3 663c 0b0e 3e3c 0675 43bb
000002e0: 7f37 a9bd 8810 e63b e63b 36bc 1469 323a
000002f0: c2b8 6ebd 84f0 0cbd 7347 febb 3b90 85bd
00000300: 242e 0fbd a3ce 8bbd 14cc 76bd 4130 193d
00000310: 3bf1 7bbb 131e b6bc d7eb f2bc 47aa 213d
00000320: 0594 8bbd b4e8 163c 2fd0 24bd 8c3e 20bd
00000330: d486 77bd 3782 88bd e487 193b 08d6 8f3d
00000340: 5e8d 813c f83d 1a3d 689d 59bc e991 5e3d
00000350: d838 05bc 085f 6e3d 13d3 93b8 8221 4abd
00000360: f9c9 4d3c 6a30 bf3b 3bc5 b23c d5e9 87bd
00000370: c6bd 99bd c531 22bd ec75 a2bd 4cf2 ddbd
00000380: 3c61 13be 0933 4c3d 53e6 c03b fcd4 283d
00000390: 2084 613c d07e 0c3d cf3b 08bd 7d64 58bd
000003a0: dd05 dbbc 380c c2bb 6f5b b63d b5ed 15bd
000003b0: 31f1 f5bb c22b 203d 1e09 873d 4166 a23d
000003c0: 3721 e8bc d7f8 7a3b bfb6 12bd b3cf cb3c
000003d0: a2f6 3e3d 54f2 723d 17ff c1b9 bce5 99ba
000003e0: 0716 0b3d c512 5c3d 949f b73d 7c8f c33d
000003f0: f651 853d 7198 9e3b dbad 943d 725b 6e3d

fc1.bias f4 [120]
0.16909124 0.07643467 0.13216648 -0.01284564 0.17300068 0.064508766 0.07858212 -0.013462499
0.11193591 0.11294763 0.021398846 0.026824296 0.084886044 -0.04942647 0.14777468 0.23230286
-0.0162415 -0.042991284 0.0732941 0.02285527 -0.001474185 0.01935993 0.086980484 0.030582517
0.016196862 0.018857738 0.13025266 -0.03227344 0.06778688 -0.025206689 -0.12712635 -0.050357744
0.16045386 -0.0015698309 -0.019962361 -0.029725453 -0.062014222 0.077836365 0.011856404 0.09792543
-0.0034843434 0.03735036 0.05671276 0.13525818 -0.023150446 -0.086001724 0.07413424 0.033662323
0.044631917 -0.035148386 -0.039823376 0.01687107 -0.10460787 -0.041686956 0.012465675 -0.0037937993
-0.23629853 0.058464415 0.0115665635 0.061992865 0.03444521 0.04481017 0.006447302 -0.06634471
-0.10031771 0.0738687 0.06283138 -0.057278953 -0.02702883 0.03484753 0.020345027 0.0008659831
0.0021637643 0.12388381 0.14091316 -0.00638509 -0.082186334 0.006353661 -0.008505751 -0.014790977
0.05049156 0.08166224 0.07580457 0.022972377 -0.054358482 0.16122387 0.02211838 0.15747613
0.036239997 -0.05838026 -0.024733441 -0.060623787 0.021391327 0.032072086 0.032148577 0.051216736
0.2155138 0.13597873 0.0015120876 0.060924165 0.024433536 -0.036990758 -0.013196048 0.03376381
0.17439885 -0.094941616 0.04482864 0.111015014 -0.013827213 0.00580178 0.02514528 0.09498704
-0.008755537 0.015561964 0.020850794 -0.008100166 0.0010161054 0.020709397 -0.13200668 -0.03521908
00000000: 4126 2d3e c889 9c3d a656 073e 8576 52bc
00000010: 1727 313e 2c1d 843d aaef a03d d091 5cbc
00000020: a83e e53d 1651 e73d a24c af3c a0be db3c
00000030: bcd8 ad3d 6973 4abd 3f52 173e cde0 6d3e
00000040: e50c 85bc a117 30bd 381b 963d fa3a bb3c
00000050: 7139 c1ba b798 9e3c d322 b23d 3088 fa3c
00000060: 48af 843c 8b7b 9a3c f460 053e 2831 04bd
00000070: d9d3 8a3d 427e cebc 692d 02be ec43 4ebd
00000080: 044e 243e c9c2 cdba 1b88 a3bc cb82 f3bc
00000090: a002 7ebd ac68 9f3d 5d41 423c 218d c83d
000000a0: 9559 64bb b1fc 183d a44b 683d 1f81 0a3e
000000b0: 01a6 bdbc ac21 b0bd b1d3 973d 81e1 093d
000000c0: f5cf 363d c1f7 0fbd d61d 23bd 3335 8a3c
000000d0: a73c d6bd f1bf 2abd d53c 4c3c 64a1 78bb
000000e0: 3ef8 71be 6278 6f3d af81 3d3c 3bec 7d3d
000000f0: 6c16 0d3d de8a 373d e443 d33b bcdf 87bd
00000100: 5f73 cdbd 7948 973d bdad 803d 569d 6abd
00000110: 916b ddbc 49bc 0e3d 9daa a63c 2403 633a
00000120: f1cd 0d3b ccb6 fd3d 8a4b 103e 043a d1bb
00000130: 4f51 a8bd 5f32 d03b b55b 0bbc db55 72bc
00000140: 3dd0 4e3d 883e a73d 6d3f 9b3d 9130 bc3c
00000150: 00a7 5ebd df17 253e 9b31 b53c 6c41 213e
00000160: 6470 143d 2420 6fbd c99d cabc a650 78bd
00000170: dd3c af3c 055e 033d 3aae 033d a4c8 513d
00000180: a6af 5c3e 023e 0b3e 3e31 c63a 9e8b 793d
00000190: d728 c83c 9f83 17bd 3d34 58bc ec4b 0a3d
000001a0: 9d95 323e c070 c2bd 3c9e 373d d75b e33d
000001b0: 898b 62bc dc1c be3b 79fd cd3c 9188 c23d
000001c0: 6273 0fbc 9cf7 7e3c 49cf aa3c 8fb6 04bc
000001d0: d72e 853a c1a6 a93c c22c 07be e241 10bd

fc2.weight f4 [84, 120]
0.0027567982 -0.03401393 -0.010892469 0.20448695 0.18668404 -0.02259859 -0.03203189 -0.056485813
-0.13892357 -0.12726341 -0.019313607 0.10127507 -0.044281833 0.0360755 0.12459925 -0.08178717
-0.048499767 -0.021369897 -0.15816337 -0.040435776 -0.054641988 -0.1047907 0.062690675 0.0147037
0.026349707 0.08194827 0.059151392 0.010397862 0.012770359 -0.02928069 -0.024377374 0.061420605
-0.07668948 0.02013783 -0.032581963 0.041646577 0.017332697 -0.05999949 0.039728064 -0.043004856
0.07386115 -0.0026080383 -0.013244283 -0.15247142 0.06860715 0.03760264 -0.096359685 0.0188499
-0.04673072 0.109370306 -0.026162788 -0.17369927 0.023598388 0.0050271493 -0.19051343 -0.1654033
0.08269585 -0.04204034 -0.022467654 0.025240824 0.038990803 0.023581825 0.040907692 -0.08870837
-0.024209645 -0.09618125 0.030549828 -0.0081273345 0.07141003 0.03234852 0.071140744 0.018779686
0.045320813 0.060607024 0.026778169 -0.021849988 -0.0433361 -0.04169531 0.0790342 -0.06783945
0.24476701 -0.05183368 -0.066250615 -0.12572056 -0.03466986 0.03650433 -0.11421211 0.026356211
0.03901589 0.058410365 -0.00033383985 0.034433056 -0.08880816 0.03984985 0.13973555 0.05920687
-0.07096504 0.010665393 -0.063106395 -0.089717984 0.009713154 0.09842494 -0.04727004 -0.0048497086
0.07171694 0.03983371 0.14461355 -0.013614948 0.016487226 -0.08759715 0.09677503 0.121528715
-0.01993333 0.04960203 0.0386137 0.013787062 -0.054066505 -0.07308556 0.06324807 -0.016263457
-0.059118643 0.03049678 0.081884004 0.061692897 0.006342362 0.051634915 0.046047404 0.042010594
-0.16184771 0.052446403 -0.10231476 0.13439085 0.024322953 -0.02227333 -0.00030143102 0.0019621775
-0.02121022 -0.0661903 -0.15312673 0.05654822 0.089026034 0.0069389343 -0.09099727 -0.089477636
-0.06844418 -0.020367699 -0.1296531 0.014713007 0.12419868 0.072545215 -0.121344306 -0.04335343
0.09890115 0.10937491 -0.022965081 -0.041601315 0.066076696 -0.04718897 0.014275656 -0.09990612
0.024301441 -0.10174726 0.03408049 0.01738515 0.021279918 0.1459839 -0.083070606 6.178362e-05
-0.042091377 -0.04995146 -0.029931344 0.015814269 0.048464052 -0.008346097 -0.025166366 0.014412246
0.089760564 0.0621469 0.061950956 -0.16207315 0.034644287 0.0116096595 0.040934436 -0.16412894
-0.08080396 0.052475926 -0.048978418 -0.046202574 -0.03622215 -0.001566096 -0.019318292 0.021180673
-0.03199472 -0.08738549 0.07123572 0.021960994 -0.061042976 -0.025738794 0.05627594 0.12536032
-0.06657092 -0.1755239 0.14752519 -0.020318808 0.09333399 0.020657275 -0.06837127 -0.059110496
0.06916214 -0.06838258 0.07523667 -0.04465081 0.037951484 -0.055945877 0.17649631 -0.03251613
-0.021606708 0.065343805 0.038795244 -0.10649253 0.14556776 0.025421917 0.01069708 0.010283475
-0.024152098 0.008316031 -0.08311137 0.01803857 0.014068681 -0.0713685 0.07993621 0.02092382
0.066176586 0.13655142 -0.13089587 -0.0030412376 0.050440457 -0.053457398 -0.08520281 -0.0151355555
-0.05685274 0.022505693 -0.05719898 0.0097255185 -0.033619776 0.026977032 0.007236787 -0.06089169
-0.035792306 -0.009750702 -0.036000606 0.0634603 -0.0023209725 -0.0649523 -0.08663587 0.035790276
00000000: 66ab 343b 3152 0bbd 5476 32bc 0765 513e
00000010: 1a2a 3f3e ae20 b9bc df33 03bd ab5d 67bd
00000020: fb41 0ebe 5751 02be 9237 9ebc 4e69 cf3d
00000030: de60 35bd e7c3 133d e42d ff3d 0880 a7bd
00000040: b1a7 46bd ec0f afbc 94f5 21be fc9f 25bd
00000050: 47d0 5fbd 829c d6bd f863 803d cae7 703c
00000060: 57db d73c 7fd4 a73d bb48 723d cb5b 2a3c
00000070: c53a 513c 0fde efbc 0fb3 c7bc 2c94 7b3d
00000080: 600f 9dbd 17f8 a43c aa74 05bd 9a95 2a3d
00000090: 4dfd 8d3c 06c2 75bd e5b9 223d dc25 30bd
000000a0: 8444 973d 9feb 2abb 8dfe 58bc 7821 1cbe
000000b0: e881 8c3d 3a05 1a3d 3a58 c5bd 1b6b 9a3c
000000c0: b668 3fbd 8afd df3d 5853 d6bc 39de 31be
000000d0: 6851 c13c c9ba a43b f415 43be 7c5f 29be
000000e0: 715c a93d 7e32 2cbd 160e b8bc d8c5 ce3c
000000f0: d2b4 1f3d ac2e c13c d38e 273d bcac b5bd
00000100: 4e53 c6bc adfa c4bd a243 fa3c 8328 05bc
00000110: 6c3f 923d e27f 043d 3db2 913d dbd7 993c
00000120: 51a2 393d 123f 783d e45d db3c bffe b2bc
00000130: 3281 31bd b4c8 2abd afdc a13d 69ef 8abd
00000140: 34a4 7a3e 8e4f 54bd 67ae 87bd e4bc 00be
00000150: fc01 0ebd 9085 153d 0ae8 e9bd fbe8 d73c
00000160: 20cf 1f3d b53f 6f3d 3a07 afb9 ad09 0d3d
00000170: 0de1 b5bd 9939 233d d616 0f3e e782 723d
00000180: 1e56 91bd e7bd 2e3c ed3d 81bd 10be b7bd
00000190: ec23 1f3c 0493 c93d 3b9e 41bd 4eea 9ebb
000001a0: 55e0 923d ac28 233d 9315 143e 3b11 5fbc
000001b0: 3810 873c 2266 b3bd fd31 c63d 0ce4 f83d
000001c0: 394b a3bc 802b 4b3d 6629 1e3d 21e3 613c
000001d0: d774 5dbd e2ad 95bd 3488 813d f13a 85bc
000001e0: 6426 72bd 62d4 f93c cdb2 a73d b1b1 7c3d
000001f0: 97d3 cf3b 227f 533d 349c 3c3d 4d13 2c3d
00000200: 68bb 25be 0ad2 563d 678a d1bd c19d 093e
00000210: ee40 c73c 8f76 b6bc 6309 9eb9 e097 003b
00000220: 0ec1 adbc c88e 87bd 41cd 1cbe 1b9f 673d
00000230: 4853 b63d 0060 e33b c75c babd 0d40 b7bd
00000240: 762c 8cbd 29da a6bc c8c3 04be d30e 713c
00000250: e15b fe3d 9692 943d 5d83 f8bd 5e93 31bd
00000260: b08c ca3d f4ff df3d 4421 bcbc 2466 2abd
00000270: 3853 873d 3949 41bd 71e4 693c 949b ccbd
00000280: d113 c73c de60 d0bd fc97 0b3d 4d6b 8e3c
00000290: 3953 ae3c ce7c 153e ec20 aabd d491 8138
000002a0: 0268 2cbd e799 4cbd 9432 f5bc ed8c 813c
000002b0: 3e82 463d 11be 08bc b229 cebc 5721 6c3c
000002c0: 63d4 b73d bf8d 7e3d 49c0 7d3d 81f6 25be
000002d0: 2be7 0d3d 7136 3e3c deaa 273d 6b11 28be
000002e0: 8c7c a5bd fff0 563d 989d 48bd e93e 3dbd
000002f0: ad5d 14bd 7645 cdba 6541 9ebc 1783 ad3c
00000300: e50c 03bd 2af7 b2bd 08e4 913d 8be7 b33c
00000310: 3308 7abd 2ada d2bc 9a81 663d 755e 003e
00000320: 5656 88bd 8abc 33be d810 173e a173 a6bc
00000330: e425 bf3d 7239 a93c 3d06 8cbd d91d 72bd
00000340: e1a4 8d3d 2b0c 8cbd af15 9a3d c5e3 36bd
00000350: 0473 1b3d 8127 65bd 73bb 343e a22f 05bd
00000360: 8d00 b1bc f9d2 853d c3e7 1e3d c118 dabd
00000370: b70f 153e a041 d03c ce42 2f3c 057c 283c
00000380: 9fda c5bc f63f 083c 4b36 aabd a0c5 933c
00000390: 5380 663c a629 92bd 98b5 a33d 6e68 ab3c
000003a0: 9787 873d 23d4 0b3e 9109 06be 804f 47bb
000003b0: a79a 4e3d 25f6 5abd d07e aebd 1ffb 77bc
000003c0: 6bde 68bd dc5d b83c 7a49 6abd c857 1f3c
000003d0: e4b4 09bd f0fe dc3c 9222 ed3b 9169 79bd
000003e0: f49a 12bd 69c1 1fbc 5f75 13bd 79f7 813d
000003f0: 751b 18bb b605 85bd 266e b1bd d398 123d

fc2.bias f4 [84]
0.09563965 0.06292301 0.16733229 -0.018220875 -0.017437926 -0.053970102 0.24473016 0.026579197
0.17891017 0.53861016 -0.026258446 -0.04493717 0.14605008 -0.028583959 -0.06523755 -0.03423209
0.21397215 -0.05945987 0.07111791 0.19201455 0.3304309 0.105777904 0.20050259 0.3006004
0.0060904864 0.04963782 -0.07193256 -0.0048702364 0.018484613 0.18955436 0.0038295446 0.07584459
0.1050053 0.004514128 0.052205008 0.017225778 -0.036579497 0.087120175 0.21295874 0.2508228
0.06553064 -0.0588329 -0.002933108 0.111121155 0.1442114 0.21056409 -0.081998505 -0.078448854
-0.010446095 0.25704655 0.21551982 0.012387276 -0.0020248345 0.2789318 0.14854094 -0.107611604
-0.047946475 -0.042119917 0.05741189 -0.12106329 -0.07571166 -0.017278364 -0.093904115 0.11580262
0.03439069 0.03054362 -0.068847984 -0.026423458 -0.06418463 0.040863518 -0.098069824 0.13183309
0.13948385 0.05107771 -0.11926633 -0.12020172 0.043766648 0.077643946 0.12723006 -0.01750462
0.079610676 0.068682335 0.18131745 -0.07164318
00000000: b9de c33d c7dd 803d 2859 2b3e f243 95bc
00000010: fbd9 8ebc c10f 5dbd 8b9a 7a3e 9ebc d93c
00000020: 3a34 373e 5be2 093f f41b d7bc 0a10 38bd
00000030: 278e 153e e828 eabc 449b 85bd f336 0cbd
00000040: 841b 5b3e 318c 73bd 44a6 913d 769f 443e
00000050: 3d2e a93e 16a2 d83d 8d50 4d3e 4ce8 993e
00000060: b492 c73b 0751 4b3d 6151 93bd 8196 9fbb
00000070: 0b6d 973c 8a1a 423e 19f9 7a3b 6954 9b3d
00000080: 050d d73d 40eb 933b ebd4 553d 131d 8d3c
00000090: 62d4 15bd 106c b23d db11 5a3e d96b 803e
000000a0: ee34 863d c4fa 70bd 6339 40bb 7d93 e33d
000000b0: 27ac 133e 1d9e 573e d5ee a7bd cba9 a0bd
000000c0: 1926 2bbc 9b9b 833e 3ab1 5c3e 00f4 4a3c
000000d0: 16b3 04bb 26d0 8e3e 1e1b 183e 7963 dcbd
000000e0: 8663 44bd ef85 2cbd bb28 6b3d 08f0 f7bd
000000f0: b70e 9bbd 5b8b 8dbc cd50 c0bd ed29 ed3d
00000100: 41dd 0c3d 9d36 fa3c 2c00 8dbd 0276 d8bc
00000110: 3b73 83bd 8160 273d d5d8 c8bd 41ff 063e
00000120: dbd4 0e3e dc36 513d e841 f4bd 522c f6bd
00000130: a844 333d ca03 9f3d 9948 023e d965 8fbc
00000140: ec0a a33d 53a9 8c3d 48ab 393e a9b9 92bd

fc3.weight f4 [10, 84]
-0.12190541 -0.14464092 0.0078071547 0.07447545 0.13053331 0.09867576 0.13098538 -0.0052236635
-0.11889085 -0.18804345 -0.09357862 -0.10154556 0.15555686 0.077277094 0.0072848443 0.025237292
-0.111803085 -0.07282637 0.27817693 -0.13317916 -0.2599982 -0.02750954 -0.14199965 -0.16332231
-0.13190438 0.040575974 0.025358759 -0.004179557 0.18188289 -0.11663034 -0.01567179 0.10307113
0.3261506 0.0763108 0.29703972 0.07115032 -0.03653315 -0.05077411 -0.08585231 -0.17797424
-0.023871534 0.18452421 0.18197995 -0.016837982 0.13117655 0.1522757 -0.037459202 -0.055979848
0.16263133 -0.19880275 0.08602331 0.15468399 -0.07313188 -0.22587901 0.2652792 0.020891989
0.052677758 -0.0028371082 0.018629042 0.08467045 -0.052608058 0.0889585 -0.021412719 -0.009434436
-0.055202402 0.1376464 -0.10463061 -0.014526367 -0.07519337 0.080352604 0.15896478 -0.14161915
0.0029000521 -0.089538954 0.09403826 0.13905376 0.11142087 -0.104791805 0.017127393 0.05213729
0.25203338 -0.0075259907 -0.02251638 0.15266478 0.23047383 0.29062498 -0.018681962 0.081355214
0.005610681 -0.0040420583 -0.016437076 -0.05482872 -0.02173669 -0.5314876 -0.010797393 0.02894806
-0.14881292 0.08998092 -0.023138454 -0.24511787 0.19301777 0.06548203 0.042830188 -0.0684524
-0.28118056 0.12961309 -0.043563534 -0.14230436 0.043444872 -0.12448888 0.06234583 0.095919855
-0.17096145 -0.06518381 -0.0067324317 -0.043066148 -0.13862903 -0.10785869 0.11455747 -0.06925951
-0.044488017 -0.021393975 -0.23210825 -0.10812766 -0.046627905 0.19755697 0.07891821 -0.108659044
0.11805803 -0.05995281 -0.11145338 0.04133711 -0.107262686 -0.20265555 -0.013473103 0.067303695
-0.015311553 0.0796786 -0.25248614 0.08498974 0.20652655 -0.08531157 0.08915159 0.20590974
-0.04463756 -0.1559829 -0.24699622 0.0022021611 0.30139095 -0.15354158 0.0005922214 -0.04179263
0.08619874 0.17063808 0.11794518 0.04056256 0.03753235 -0.023322798 0.05872392 0.03787982
0.10503265 0.26875988 -0.21410361 -0.07261598 0.2293 0.20949218 0.042442773 0.13836408
0.23012194 -0.2115067 -0.02502564 0.054262992 0.13732797 0.0686724 0.010750067 -0.016070047
0.040332325 0.24711788 -0.02108173 -0.23572579 0.185174 0.117274515 -0.02035645 0.15513673
-0.0012034295 -0.11104901 0.12493247 0.03509424 0.27133936 -0.0726876 0.044192538 0.18191613
-0.0879456 0.14113499 -0.09117415 -0.060999386 0.0916678 0.23592241 0.041553307 -0.07078823
0.32282957 -0.06394309 -0.051675227 -0.025604727 -0.0049821893 0.09002895 0.072026536 0.12921552
0.11116253 0.049954176 0.026020614 0.004494654 0.010870748 -0.03388846 0.061961245 0.06340954
0.28500772 0.16762303 0.2149161 0.06737622 0.024217222 -0.050949436 0.081547394 0.062341414
0.026746156 -0.057265714 -0.062960915 -0.056351684 0.06935364 0.09791072 0.12888852 -0.14680362
-0.029812127 -0.125745 0.042579845 0.084406145 -0.094181895 -0.13372746 0.050379105 -0.069239855
-0.005631367 -0.0747065 -0.023979012 -0.15600838 -0.11572105 -0.038781784 0.036636133 -0.115022495
-0.2133362 -0.20198037 -0.1234956 0.11083783 -0.07345564 -0.059956864 0.083241604 -0.037523594
00000000: 8ba9 f9bd c01c 14be 29d3 ff3b 9686 983d
00000010: 86aa 053e 8416 ca3d 0821 063e 442b abbb
00000020: 0c7d f3bd 768e 40be 26a6 bfbd 1ef7 cfbd
00000030: 4c4a 1f3e 7443 9e3d b4b5 ee3b 70be ce3c
00000040: 04f9 e4bd fe25 95bd 356d 8e3e 1e60 08be
00000050: 7c1e 85be b05b e1bc 5b68 11be f73d 27be
00000060: f111 07be fe32 263d 2cbd cf3c aaf4 88bb
00000070: 823f 3a3e e3db eebd 2062 80bc f516 d33d
00000080: 36fd a63e d648 9c3d 9715 983e 42b7 913d
00000090: c9a3 15bd 83f8 4fbd 56d3 afbd e13e 36be
000000a0: 3c8e c3bc eaf3 3c3e f458 3a3e cfef 89bc
000000b0: 2553 063e 29ee 1b3e d26e 19bd 204b 65bd
000000c0: d488 263e f392 4bbe fd2c b03d 7b65 1e3e
000000d0: 2bc6 95bd d44c 67be add2 873e ad25 ab3c
000000e0: a2c4 573d c7ee 39bb ef9b 983c b367 ad3d
000000f0: 8c7b 57bd e02f b63d ba69 afbc e592 1abc
00000100: ea1b 62bd 2ef3 0c3e 9348 d6bd 0000 6ebc
00000110: fbfe 99bd e88f a43d aac7 223e 9c04 11be
00000120: cd0e 3e3b 3360 b7bd 2297 c03d 1c64 0e3e
00000130: a030 e43d 169d d6bd bf4e 8c3c e98d 553d
00000140: 850a 813e 969c f6bb 4574 b8bc 2854 1c3e
00000150: 5501 6c3e cccc 943e ea0a 99bc 909d a63d
00000160: ced9 b73b 3e73 84bb 0ca7 86bc 1494 60bd
00000170: 2511 b2bc 920f 08bf 8ce7 30bc 7b24 ed3c
00000180: 6a62 18be eb47 b83d db8c bdbc 2e00 7bbe
00000190: 73a6 453e 711b 863d b56e 2f3d c630 8cbd
000001a0: e6f6 8fbe 4bb9 043e ad6f 32bd 3cb8 11be
000001b0: 40f3 313d 07f4 febd 575e 7f3d a171 c43d
000001c0: 8510 2fbe 177f 85bd bb9b dcbb 2166 30bd
000001d0: c5f4 0dbe 04e5 dcbd 1b9d ea3d eed7 8dbd
000001e0: 1139 36bd 6b42 afbc c9ad 6dbe 0972 ddbd
000001f0: e7fc 3ebd 604c 4a3e df9f a13d a288 debd
00000200: 69c8 f13d 1491 75bd ab41 e4bd 1a51 293d
00000210: 8aac dbbd f084 4fbe 4abe 5cbc 85d6 893d
00000220: 4fdd 7abc 892e a33d dd45 81be 1a0f ae3d
00000230: b27b 533e d5b7 aebd 1c95 b63d 01da 523e
00000240: e0d5 36bd fbb9 1fbe 94ec 7cbe 2252 103b
00000250: ea4f 9a3e 013a 1dbe 4e3f 1b3a c02e 2bbd
00000260: f788 b03d c0bb 2e3e 3e8d f13d ed24 263d
00000270: 85bb 193d 740f bfbc 7e88 703d df27 1b3d
00000280: 5c1b d73d e59a 893e fa3d 5bbe b0b7 94bd
00000290: 9fcd 6a3e 1e85 563e 79d8 2d3d 50af 0d3e
000002a0: 16a5 6b3e 3695 58be 9202 cdbc df42 5e3d
000002b0: b49f 0c3e 1ea4 8c3d 0d21 303c 55a5 83bc
000002c0: 8233 253d 780c 7d3e 98b3 acbc 1a62 71be
000002d0: 419e 3d3e 9f2d f03d 92c2 a6bc 2adc 1e3e
000002e0: 65bc 9dba aa6d e3bd 98dc ff3d fabe 0f3d
000002f0: feec 8a3e 3ddd 94bd 3c03 353d 3948 3a3e
00000300: d31c b4bd b185 103e 83b9 babd 7eda 79bd
00000310: 54bc bb3d a595 713e cd33 2a3d 6bf9 90bd
00000320: eb49 a53e 98f4 82bd 67a9 53bd 01c1 d1bc
00000330: a241 a3bb 1961 b83d a682 933d 1351 043e
00000340: 2ea9 e33d c09c 4c3d 2f29 d53c e447 933b
00000350: 391b 323c a0ce 0abd 13cb 7d3d dcdc 813d
00000360: 88ec 913e 5fa5 2b3e f712 5c3e 8bfc 893d
00000370: 3263 c63c 5bb0 50bd 5202 a73d b659 7f3d
00000380: c11a db3c 748f 6abd a7f1 80bd 06d1 66bd
00000390: 4809 8e3d 6a85 c83d 5afb 033e b053 16be
000003a0: 9038 f4bc 4cc3 00be 3468 2e3d 21dd ac3d
000003b0: 70e2 c0bd daef 08be 525a 4e3d a0cd 8dbd
000003c0: 5587 b8bb b9ff 98bd a26f c4bc a9c0 1fbe
000003d0: 28ff ecbd a6d9 1ebd c50f 163d ea90 ebbd
000003e0: ce74 5abe f1d3 4ebe 43eb fcbd f2fe e23d
000003f0: e96f 96bd 5495 75bd 937a aa3d 57b2 19bd

fc3.bias f4 [10]
-0.4563742 -0.42272425 -0.0025329299 0.4321893 0.49077123 -0.08819594 0.24933974 -0.21317843
0.14841406 -0.20957388
00000000: e1a9 e9be 506f d8be 83ff 25bb ea47 dd3e
00000010: 5e46 fb3e 13a0 b4bd eb52 7f3e 724b 5abe
00000020: dbf9 173e 899a 56be
